checkpoint_actor_finished.pth (torch, 303959 bytes, 6 tensors)

fc1.weight f4 [256, 33]
0	0xbeef6798	-0.46758723
1	0x3e109f17	0.14123188
2	0xbc415f31	-0.011802481
3	0xbe9e4264	-0.30910027
4	0xbc8f6dee	-0.017508473
5	0x3c3b5c0e	0.011435522
6	0xbc910d81	-0.017706634
7	0xbd92e798	-0.07173079
8	0x3e1c9335	0.1529053
9	0xbe3209a1	-0.17386486
10	0xbd238b74	-0.039927915
11	0xbe140b4c	-0.14457434
12	0xbd644486	-0.05572941
13	0x3e8e1ac2	0.2775479
14	0x3dcddc71	0.100518115
15	0x3e79510e	0.24347326
16	0x3d5ca78b	0.05387072
17	0x3df4a023	0.11944606
18	0x3d0ce8a9	0.03440157
19	0x3c7552f9	0.0149733955
20	0xbc8d563c	-0.017253034
21	0xbe275228	-0.16339934
22	0x3df8d42a	0.12149842
23	0x3e2eab57	0.17057548
24	0x3e1574f5	0.14595397
25	0x3d7a631d	0.061129678
26	0xbd342f31	-0.043990318
27	0x3ea133ba	0.31484777
28	0x3d48f815	0.049064714
29	0xbd561f62	-0.052276023
30	0xbe79bdc7	-0.243888
31	0x3d26deec	0.04073994
32	0xbf97d60c	-1.1862197
33	0x3c72751e	0.014798431
34	0x3d187742	0.037223108
35	0x3e88cfcd	0.2672104
36	0x3debda61	0.11516262
37	0xbd2f0099	-0.04272518
38	0x3da2242b	0.07917055
39	0xbccb7367	-0.024835302
40	0x3daac422	0.083381906
41	0xbe5c6e06	-0.21526346
42	0xbdbed94d	-0.093187906
43	0xbccac054	-0.024749912
44	0x3d0860da	0.03329549
45	0xbdb8ac05	-0.09017185
46	0xbe260df7	-0.16216265
47	0xbd85fca2	-0.065423265
48	0xbe5f5646	-0.21810254
49	0xbd5e6d82	-0.054303654
50	0x3da77fa6	0.08178644
51	0xbd207ae6	-0.039179705
52	0xbd394488	-0.045231372
53	0xbd647d1d	-0.05578338
54	0x3d508432	0.05090732
55	0xbe082628	-0.13295805
56	0xbde02f07	-0.1094647
57	0xbcbc83c7	-0.023012055
58	0xbdb2a4a3	-0.08722808
59	0x3e8c4507	0.27396414
60	0x3e79a56a	0.24379507
61	0xbba304d8	-0.0049749427
62	0xba65cd80	-0.00087662786
63	0xbe478b12	-0.19486645
64	0xbd4f222a	-0.05056969
65	0xbf0f9052	-0.5607959
66	0x3ea347e3	0.31890783
67	0x3ebf6b42	0.3738652
68	0xbe9f08ee	-0.310615
69	0xbe0a3608	-0.13497174
70	0x3d925d02	0.07146646
71	0xbddf8436	-0.10913889
72	0x3cd76755	0.02629439
73	0xbe52ae65	-0.20574339
74	0x3e23fc8c	0.16014308
75	0xbd9eff4b	-0.07763537
76	0xbda5dbd5	-0.0809857
77	0xbdec7dc3	-0.11547425
78	0xbe0e9a6a	-0.13926092
79	0xbe552236	-0.20813832
80	0xbdfd7b1b	-0.12376996
81	0x3dd33cbc	0.103143185
82	0xbd122f48	-0.035689622
83	0xbccc9b4a	-0.024976391
84	0xbcf1a68d	-0.029498363
85	0x3d7deee2	0.061995395
86	0x3dbec9a9	0.09315807
87	0xbd75b6ba	-0.059988715
88	0x3dd6ffbc	0.10497996
89	0xbdc20ea7	-0.09475451
90	0x3b80a7cc	0.003926253
91	0xbe5f230f	-0.21790718
92	0x3c2750c1	0.010212124
93	0x3d48756f	0.04894012
94	0x3e0fb13e	0.14032456
95	0x3d609280	0.054827213
96	0x3cdfe23c	0.027329557
97	0x3cbcc128	0.023041323
98	0xbd5cd2cc	-0.05391197
99	0xbdddc2c5	-0.10828165
100	0x3eb14b04	0.34627545
101	0xbeb6daff	-0.35713956
102	0xbdfb6ee7	-0.12277012
103	0xbbc1abdd	-0.0059103803
104	0x3c71bdc4	0.014754716
105	0xbe30a445	-0.17250164
106	0x3e25c788	0.16189396
107	0xbdbda96d	-0.09260831
108	0x3e1e6132	0.15466765
109	0x3dbcedd8	0.092250526
110	0xbd293da8	-0.041318566
111	0xbd75c509	-0.06000236
112	0xbeb24c0a	-0.34823638
113	0xbe678ba4	-0.22611862
114	0x3e31523f	0.1731653
115	0x3cbd926f	0.023141114
116	0xbd31cfbb	-0.043410998
117	0x3d998447	0.07495933
118	0xbd14a5bb	-0.036290865
119	0xbe06fdef	-0.13182805
120	0xbe7d1978	-0.24716747
121	0xbdec7247	-0.11545234
122	0xbe1efd74	-0.15526372
123	0xbe4c527a	-0.19953337
124	0x3e8a4e63	0.2701293
125	0x3e3f2192	0.1866515
126	0x3e218f06	0.15777215
127	0xbdc935aa	-0.09824689
128	0xbd1df0b8	-0.038559645
129	0xbe0b2871	-0.13589646
130	0xbb41cec0	-0.0029572695
131	0xbebcae69	-0.36851814
132	0xbedc5d82	-0.4304009
133	0x3c738e82	0.0148655195
134	0xbef56c86	-0.4793436
135	0xbde45ed0	-0.111508965
136	0xbe852c3d	-0.26010314
137	0xbd3c41d2	-0.04596121
138	0xbda80704	-0.08204463
139	0x3d631464	0.055439368
140	0x3e8d3982	0.27582937
141	0x3e7d0c5a	0.24711743
142	0xbe086842	-0.13321021
143	0xbb98a69b	-0.004658533
144	0x3c9cd31f	0.01914364
145	0x3f0b8cb9	0.545116
146	0xbcc37602	-0.023859981
147	0x3f00c969	0.5030733
148	0x3d4ff8aa	0.050774254
149	0x3cc6d6d4	0.02427236
150	0xbcf07240	-0.029351354
151	0xbcf2cc5f	-0.029638467
152	0x3d91fdeb	0.07128509
153	0xbc07b274	-0.008282293
154	0x3c87aae8	0.016560987
155	0x3da3ca38	0.079975545
156	0x3a3e1e0c	0.0007252402
157	0x3d8b03b1	0.067878135
158	0xbe9fa281	-0.31178668
159	0x3dd5a5f5	0.104320444
160	0xbe1defd5	-0.1542352
161	0x3c06bda8	0.0082239285
162	0xbdcf408c	-0.10119733
163	0xbc87aec4	-0.016562827
164	0xbf1c8815	-0.61145145
165	0x3e08f97e	0.13376424
166	0xbe6878a4	-0.22702271
167	0xbe601362	-0.21882394
168	0xbd1b0f53	-0.03785641
169	0x3d65299d	0.05594789
170	0xbe7b89d7	-0.245643
171	0x3d3aadc2	0.045575865
172	0xbd9fc70c	-0.07801637
173	0xbbbc2d69	-0.005742718
174	0xbe56e9d8	-0.20987642
175	0xbca5da4c	-0.020245694
176	0x3e151cd8	0.14561784
177	0xbcf4088d	-0.029789234
178	0xbd152387	-0.036410835
179	0x3ec980a2	0.39355952
180	0x3e505884	0.20346266
181	0xbcf45474	-0.029825427
182	0xbbe909a9	-0.0071117473
183	0x3d8cbc4e	0.06871854
184	0x3ce0cd98	0.027441785
185	0x3df35214	0.118808895
186	0xbd87fa00	-0.066394806
187	0xbd796de6	-0.060895823
188	0xbbdeaa5b	-0.0067952103
189	0xbe04963f	-0.1294794
190	0x3e22baa7	0.15891515
191	0x3b7e0d46	0.0038765236
192	0x3d22e51e	0.039769284
193	0x3da3e11c	0.080019206
194	0x3d174518	0.036931127
195	0xbd1ecce8	-0.038769633
196	0xbd39b174	-0.045335248
197	0x3ee9e2cc	0.45680845
198	0xbea3ad76	-0.31968278
199	0xbd4ee312	-0.05050952
200	0x3e18b79e	0.14913794
201	0xbec952eb	-0.39321074
202	0x3d0ed987	0.03487542
203	0x3e4bb078	0.19891536
204	0xbe689f74	-0.22717077
205	0xbd6ff7a2	-0.05858577
206	0x3c22a0e7	0.009926057
207	0x3e689256	0.22712073
208	0xbd479ba8	-0.04873243
209	0xbd8b1e81	-0.067929275
210	0xbd228de4	-0.0396861
211	0x3f0ad9e0	0.542387
212	0xbd34633e	-0.044039957
213	0xbd3f121d	-0.046648134
214	0x3d3da282	0.046297558
215	0xbbfbe0b2	-0.007686698
216	0xbbb58dd0	-0.005540587
217	0xbd3ceb34	-0.046122745
218	0xbcb00309	-0.021485822
219	0xbc9e8e33	-0.019354915
220	0xbcaa8feb	-0.020820579
221	0x3e6c0b9c	0.23051304
222	0x3d11d456	0.03560289
223	0x3d539e89	0.051664863
224	0xbe9b557e	-0.30338663
225	0x3dfbdfa8	0.122985184
226	0x3d753181	0.059861664
227	0x3cf65954	0.030071892
228	0xbd8ff9ee	-0.07030092
229	0xbbf956d0	-0.007609226
230	0xbf7e3754	-0.99303174
231	0xbf0a0402	-0.53912365
232	0x3da30577	0.07960027
233	0xbd9b7f57	-0.075926475
234	0x3bf2e3e9	0.007412423
235	0x3e364d1e	0.17802855
236	0x3da4c006	0.08044438
237	0x3dd80d57	0.105494194
238	0x3d391b17	0.04519185
239	0xbea0fd09	-0.3144305
240	0xbdedec7c	-0.116173714
241	0xbde9ab8e	-0.114096746
242	0xbe0ac7e8	-0.1355282
243	0xbe829930	-0.25507498
244	0x3d78bc84	0.060726658
245	0x3ce22be1	0.027608814
246	0xbdc3af4f	-0.09554922
247	0x3dc37201	0.09543229
248	0x3d5c2ed5	0.0537556
249	0x3b17b239	0.0023147
250	0x3d1b3ccf	0.03789979
251	0x3e0b584d	0.13607903
252	0xbcd09f30	-0.025466532
253	0xbdafc332	-0.085821524
254	0x3e0deb89	0.13859381
255	0xbe1dfd3a	-0.1542863

fc1.bias f4 [256]
0	0xbe0ea024	-0.13928276
1	0xbeb1a43a	-0.34695607
2	0xbd23352d	-0.039845634
3	0xbde93082	-0.11386205
4	0x3d8cd1d5	0.0687596
5	0x3d0cdd06	0.034390472
6	0xbe3fc977	-0.18729196
7	0xbe141e07	-0.1446458
8	0x3e984eec	0.29747713
9	0xbe2a0af9	-0.16605748
10	0xbe78785c	-0.24264663
11	0x3c16f0f6	0.009212723
12	0xbe8778ab	-0.2645925
13	0xbc5130e6	-0.012768006
14	0xbdd1c4ac	-0.1024259
15	0xbd9a5a32	-0.07536735
16	0xbe09d35e	-0.13459536
17	0xbc7a9914	-0.015295286
18	0x3ce13c6a	0.027494628
19	0xbe2c81e2	-0.16846421
20	0xbe907d51	-0.2822061
21	0xbe8cd63f	-0.27507207
22	0x3d5439a2	0.051812775
23	0xbc1c6d59	-0.009547555
24	0xbea2dda6	-0.3180973
25	0xbdb567cb	-0.088576876
26	0x3c556f27	0.013026989
27	0x3e3f8c01	0.18705751
28	0xbc56ba6d	-0.013105971
29	0x3c208d07	0.009799249
30	0xbe34cc41	-0.17656042
31	0xbdf709c5	-0.1206241
32	0xbe375d0a	-0.17906585
33	0xbe841b9b	-0.2580231
34	0x3e167358	0.14692438
35	0xbea65aad	-0.32491055
36	0x3cdcd004	0.026954658
37	0xbe74bcce	-0.23900148
38	0x3d921c46	0.07134299
39	0xbdbf0712	-0.093275204
40	0xbda19f62	-0.07891728
41	0xbd26866c	-0.04065554
42	0xbea0efdb	-0.31432995
43	0xbec35a31	-0.38154748
44	0xbe535e52	-0.20641449
45	0xbe03e7c7	-0.12881385
46	0xbe62cc41	-0.22148229
47	0xbe7b781f	-0.24557541
48	0xbde14317	-0.109991245
49	0xbe0edb1a	-0.13950768
50	0xbe166846	-0.14688215
51	0xbcad3b22	-0.02114636
52	0xbe8d4889	-0.27594402
53	0xbbdc46b0	-0.006722294
54	0x3e2dfec3	0.16991715
55	0x3e3fac53	0.1871808
56	0x3d54e4c9	0.051976
57	0xbcf3d33a	-0.029763807
58	0xbe429883	-0.19003491
59	0xbe3ee823	-0.1864324
60	0xbd49310a	-0.049119033
61	0xbe7a463a	-0.24440852
62	0xbe6c7239	-0.23090447
63	0xbeb39ec8	-0.35082078
64	0x3e955184	0.29163754
65	0xbe01d58a	-0.12679115
66	0xbe3bb1ae	-0.18329498
67	0xbe45b729	-0.19308151
68	0xbe020fe5	-0.12701376
69	0xbdeae14c	-0.11468753
70	0xbd2559c2	-0.040368803
71	0xbeae1872	-0.34003025
72	0x3cd1570c	0.025554202
73	0xbdf9c8d3	-0.12196507
74	0x3e0ab22c	0.1354453
75	0x3d6f1632	0.058370776
76	0xbe33dc77	-0.1756457
77	0xbf03988e	-0.51404655
78	0x3e45ebbb	0.19328205
79	0xbc13bb5f	-0.009016841
80	0x3d1a65a9	0.037694607
81	0xbd286e92	-0.041121073
82	0xbe974f5d	-0.29552737
83	0xbe7a94be	-0.24470803
84	0xbd273b89	-0.04082826
85	0xbe8015d0	-0.25016642
86	0xbd72b3ef	-0.05925363
87	0xbeb0d138	-0.3453462
88	0x3d847657	0.06467884
89	0xbdbdf0f3	-0.09274473
90	0xbe7eb4d1	-0.24873663
91	0xbea8e75e	-0.3298902
92	0x3d8942bb	0.06702181
93	0xbe0aa0bf	-0.13537882
94	0xbddccee7	-0.10781651
95	0xbd136aac	-0.035990402
96	0xbdb9ba7f	-0.090687744
97	0xbe142575	-0.14467414
98	0xbe6bb9d1	-0.23020102
99	0x3e15635a	0.14588681
100	0x3d8c78c7	0.06858974
101	0xbd93b9f9	-0.07213206
102	0x3dce105b	0.10061713
103	0xbec1e7bf	-0.3787212
104	0x3d019ce9	0.03164378
105	0xbe724d5d	-0.23662324
106	0xbeb6aaa3	-0.3567706
107	0xbe8263f3	-0.2546688
108	0xbe6588ae	-0.2241542
109	0x3cd22f55	0.025657335
110	0xbeb1b76a	-0.34710246
111	0xbda26bca	-0.079307154
112	0x3ce922d2	0.028458986
113	0xbdd9a0ab	-0.10626348
114	0xbe8fa633	-0.28056487
115	0xbe911210	-0.28334093
116	0xbdaf6a63	-0.085652135
117	0x3d383e77	0.044981446
118	0xbed6426d	-0.41847554
119	0xbe479ebf	-0.1949415
120	0xbdd3dced	-0.103448726
121	0xbeeba3cb	-0.46023402
122	0xbea7247d	-0.32645026
123	0xbe7aa0ac	-0.24475354
124	0xbd8ba3ef	-0.06818377
125	0xbe992ced	-0.29917088
126	0xbea99892	-0.33124214
127	0x3e07b0af	0.13250993
128	0xbdc854be	-0.09781788
129	0x3ba203b4	0.004944289
130	0xbe5fb473	-0.2184618
131	0xbdd15ee4	-0.10223177
132	0xbe1cd5e7	-0.15315972
133	0xbe41e997	-0.18936764
134	0x3d072193	0.032991003
135	0xbe3f608f	-0.18689178
136	0xbd8d79be	-0.06907986
137	0x3e5659cb	0.20932691
138	0xbd4aec76	-0.049541913
139	0xbec22843	-0.37921342
140	0xbe236205	-0.1595536
141	0xbda393f2	-0.07987203
142	0xbdfd6da5	-0.12374429
143	0xbdf874bd	-0.12131641
144	0x3e356b52	0.1771672
145	0xbe0631d0	-0.1310494
146	0xbcc6a7fa	-0.02425002
147	0xbe102379	-0.14076032
148	0xbdca4663	-0.098767065
149	0xbda4ed79	-0.08053107
150	0xbe9f5f0e	-0.31127208
151	0xbcec9e06	-0.028883945
152	0x3dc27e7e	0.09496783
153	0xbe90323b	-0.28163323
154	0x3d1be6aa	0.038061775
155	0xbdcdbff8	-0.10046381
156	0xbe583ba3	-0.211165
157	0xbe7e6262	-0.24842218
158	0x3e49458f	0.19655441
159	0xbe78573c	-0.24252027
160	0xbeaab529	-0.3334134
161	0x3e1814a0	0.14851618
162	0xbe1bfcf8	-0.15233219
163	0x3dc28498	0.094979465
164	0xbe7a74b4	-0.24458581
165	0xbdf56c7c	-0.119835824
166	0x3e837994	0.25678694
167	0xbeacb593	-0.3373228
168	0xbe3eca73	-0.18631916
169	0xbea0f819	-0.31439283
170	0xbdb097f6	-0.08622734
171	0xbdc6c963	-0.0970638
172	0x3ba48e09	0.0050218147
173	0xbdf01537	-0.117227964
174	0xbe08d783	-0.13363461
175	0x3e1ccd23	0.15312628
176	0x3e09049e	0.13380668
177	0x3dd58774	0.10426226
178	0xbe9dd91a	-0.30829698
179	0xbe1f6e8e	-0.15569517
180	0xbe6534eb	-0.22383468
181	0xbea64268	-0.3247254
182	0x3e5f45ca	0.21803966
183	0xbd654f66	-0.055983923
184	0xbe7c0526	-0.24611339
185	0x3d576ec8	0.052595884
186	0xbd8f46fd	-0.06995962
187	0xbd1c79a6	-0.03820195
188	0xbe995291	-0.29945806
189	0xbe6e6503	-0.2328072
190	0xbe8545c7	-0.26029798
191	0xbd936f73	-0.071989916
192	0xbdea6b82	-0.11446287
193	0xbe38def8	-0.18053806
194	0xbe526a91	-0.20548464
195	0xbeed06ea	-0.46294338
196	0x3ad0cf45	0.0015930912
197	0xbeb78495	-0.3584334
198	0xbe46e723	-0.19424109
199	0xbe3c2f42	-0.18377402
200	0xbd891ec0	-0.06695318
201	0x3e938f1b	0.28820118
202	0x3d9c6d56	0.07638042
203	0x3c12ffe8	0.008972146
204	0xbe9442ac	-0.28957117
205	0xbe173139	-0.1476487
206	0xbe4b9976	-0.1988276
207	0xbe49dc57	-0.19712959
208	0x3c388e08	0.011264332
209	0xbe93b1c0	-0.2884655
210	0xbd7c5263	-0.061602008
211	0xbeca2d61	-0.39487746
212	0x3d2f2d2e	0.042767696
213	0xbef1ed57	-0.47251388
214	0xbc2a6eaf	-0.010402366
215	0xbeb612d9	-0.35561255
216	0xbda538e4	-0.08067492
217	0xbe76d8d8	-0.24106157
218	0x3dada03a	0.084778264
219	0x3d825aee	0.06365
220	0xbddb3bbf	-0.10704755
221	0xbec0271e	-0.37529844
222	0xbe52cb5d	-0.2058539
223	0xbf47011e	-0.7773608
224	0xbec4e0e4	-0.38452828
225	0xbd805aa0	-0.06267285
226	0xbc1f6d79	-0.00973069
227	0x3e26fe37	0.16307913
228	0x3dba12c5	0.09085611
229	0x3d888ce0	0.06667495
230	0x3def7259	0.11691732
231	0x3dafd089	0.08584697
232	0xbea02f92	-0.31286293
233	0xbe0e1994	-0.13876945
234	0xbbda9540	-0.006670624
235	0xbdcc8674	-0.099865824
236	0x3e6edfa2	0.23327497
237	0x3d4b40c7	0.049622323
238	0x3d0fb346	0.035083078
239	0xbe3c79d5	-0.1840585
240	0xbe4db237	-0.20087515
241	0xbe8d2f25	-0.2757503
242	0xbeb16ae4	-0.34651864
243	0xbe09503e	-0.13409516
244	0xbe72226c	-0.23645943
245	0x3e701648	0.23446
246	0x3e723a61	0.23655082
247	0x3e192790	0.14956498
248	0xbeb097ef	-0.34490916
249	0xbcdd10c3	-0.026985532
250	0xbe3f3983	-0.18674283
251	0xbe382ece	-0.17986605
252	0x3d2058ad	0.039147068
253	0xbe6839c4	-0.22678286
254	0xbb2c153e	-0.0026257779
255	0xbdbc14b4	-0.09183636

fc2.weight f4 [256, 256]
0	0xbdd48425	-0.10376767
1	0x3e82281e	0.25421232
2	0x3d4d54cb	0.050129693
3	0xbe262369	-0.16224445
4	0xbdc70c91	-0.09719194
5	0xbd4ce76f	-0.0500254
6	0x3e81aa92	0.25325447
7	0xbe9eb915	-0.3100058
8	0x3e9fc370	0.31203794
9	0xbda6fe88	-0.08154017
10	0x3d2bc5e1	0.04193676
11	0xbe85794e	-0.2606911
12	0x3afd7bb6	0.0019339237
13	0x3e90bd95	0.2826964
14	0xbeca6eb1	-0.39537576
15	0xbbabe5ab	-0.0052458844
16	0xbea7c085	-0.32764068
17	0x3e4f397c	0.20236772
18	0xbdf292f9	-0.11844439
19	0xbc1c6f32	-0.009547995
20	0x3e28f121	0.16498233
21	0x3e59f6ed	0.21285601
22	0xbdde1a28	-0.10844833
23	0x3de1ede8	0.11031705
24	0xbe8bae5a	-0.27281457
25	0x3e37f160	0.17963171
26	0xbe8cfebc	-0.27538097
27	0xbec69a4c	-0.38789594
28	0xbee35f75	-0.44408765
29	0x3d521571	0.05128998
30	0xbef633fd	-0.4808654
31	0x3d4da288	0.05020383
32	0xbe1a1773	-0.15048008
33	0x3dd748fd	0.10511968
34	0xbdfb9e74	-0.12286082
35	0xbe20e9ac	-0.15714139
36	0xbe4d8513	-0.20070295
37	0xbeb626b8	-0.35576415
38	0x3ac8355b	0.001527469
39	0xbe1839c6	-0.14865789
40	0xbe89bee9	-0.26903465
41	0xbe22fc28	-0.15916502
42	0xbceb9a88	-0.02876021
43	0xbbbc7aab	-0.005751928
44	0x3ea624c8	0.32449937
45	0x3eb0914b	0.3448585
46	0x3d7cb405	0.061695118
47	0x3e346e0d	0.17620106
48	0xbdcc5b5b	-0.09978362
49	0x3da69357	0.081335716
50	0xbe2d2695	-0.16909249
51	0x3d694c76	0.056957684
52	0xbd2bc31b	-0.041934114
53	0xbd828c12	-0.063743725
54	0x3e52d238	0.20588005
55	0xbde47cdc	-0.111566275
56	0xbe14bef5	-0.1452597
57	0xbdfb4446	-0.122688815
58	0xbebfb62a	-0.37443668
59	0x3de8dbd6	0.113700554
60	0x3c85e6ee	0.016345467
61	0xbe20a637	-0.15688406
62	0xbee17155	-0.44031778
63	0x3ebd1a71	0.36934236
64	0xbe72d5c8	-0.23714364
65	0x3e8b178e	0.27166408
66	0xbd9f6a40	-0.077839375
67	0xbe8c91ef	-0.27455088
68	0x3e615437	0.22004782
69	0x3e91952d	0.28434125
70	0xbe0fbc68	-0.14036715
71	0xbe9d925e	-0.30775732
72	0x3e890f75	0.26769605
73	0xbe6a2056	-0.22863898
74	0x3e5a9b64	0.2134834
75	0xbe856587	-0.26054022
76	0x3e0aafa5	0.13543566
77	0x3d85a11f	0.06524872
78	0xbe68940f	-0.2271273
79	0x3c904669	0.0176117
80	0xbedce394	-0.43142378
81	0xbe3f9fac	-0.18713254
82	0xbcc6e479	-0.024278866
83	0xbb7349eb	-0.0037122916
84	0xbe76320e	-0.24042532
85	0x3eb30fec	0.34973085
86	0x3daca98d	0.08430777
87	0xbdc98110	-0.0983907
88	0x3e85c746	0.26128596
89	0x3db5ec7d	0.08882997
90	0x3c851a1f	0.016247807
91	0x3d9c6db9	0.076381154
92	0x3e286095	0.16443093
93	0xbde23494	-0.11045185
94	0xbc8b61a6	-0.017014336
95	0xbcc6eb3c	-0.02428209
96	0x3d391862	0.04518927
97	0xbe6f0ffe	-0.23345944
98	0x3e9d921a	0.3077553
99	0xbe5ae2e5	-0.21375616
100	0xbea1369b	-0.31486973
101	0xbe0e2dcc	-0.13884658
102	0xbf07bf8e	-0.53026664
103	0xbd2b21c3	-0.041780245
104	0xbed6b17d	-0.41932288
105	0xbedd308d	-0.43201104
106	0xbdbf4b7b	-0.09340569
107	0xbe501f71	-0.20324494
108	0xbe3f8adc	-0.18705314
109	0x3d858350	0.065191865
110	0x3ca365dc	0.019946031
111	0xbda79214	-0.08182159
112	0x3e47a440	0.1949625
113	0xbe42b9f0	-0.19016242
114	0x3e2a8c29	0.1665503
115	0xbf069daf	-0.52584356
116	0x3d84673f	0.06465005
117	0xbe295bb7	-0.16538893
118	0x3e71031d	0.23536344
119	0x3e2a2053	0.16613893
120	0x3e2c2a72	0.16813067
121	0xbe23cd43	-0.1599627
122	0x3dc4de00	0.09612656
123	0xbe4553ca	-0.19270244
124	0xbe566def	-0.20940374
125	0xbe87fbe2	-0.2655936
126	0x3e48cd27	0.1960951
127	0xbe6b439d	-0.22975011
128	0x3e3b36bd	0.182826
129	0xbe0d08bd	-0.13772865
130	0xbe8229e7	-0.25422594
131	0xbe0492e8	-0.12946665
132	0xbe08e093	-0.13366918
133	0x3e06032f	0.13087152
134	0x3c1683ee	0.009186728
135	0xbea849f5	-0.32868925
136	0x3e5cb9d6	0.21555266
137	0xbe68362c	-0.22676915
138	0x3d0452ad	0.03230541
139	0xbe1c6784	-0.15273863
140	0x3d850c5b	0.06496497
141	0xbe0d0951	-0.13773085
142	0x3e8da885	0.27667633
143	0xbdaf3122	-0.08554293
144	0x3d527188	0.051377803
145	0x3d3986d2	0.04529459
146	0xbee9ed37	-0.45688793
147	0xbe197b61	-0.14988472
148	0xbe043dff	-0.12914275
149	0xbd22900c	-0.039688155
150	0xbe5a58b1	-0.21322896
151	0x3d86a0d4	0.06573644
152	0x3e490cff	0.19633864
153	0x3d92b7b2	0.07163943
154	0xbe41c9ce	-0.18924639
155	0xbd2c00d6	-0.041992985
156	0xbe95f255	-0.29286447
157	0xbe33c488	-0.1755544
158	0x3d95f4db	0.07322093
159	0x3ea58fe8	0.32336354
160	0xbcbb9e53	-0.022902643
161	0xbe7aad32	-0.24480131
162	0x3d1242b5	0.035708148
163	0x3e4c4965	0.19949873
164	0x3e24aad1	0.16080786
165	0xbd5c6458	-0.053806633
166	0xbe1c0436	-0.15235981
167	0x3db8cffb	0.09024044
168	0x3d70b156	0.05876287
169	0x3ebff3b7	0.37490627
170	0xbe9527b6	-0.2913186
171	0xbe19efa5	-0.15032823
172	0xbe6f61d1	-0.23377158
173	0x3edbaadf	0.42903802
174	0xbe12a60f	-0.14321159
175	0x3e29ec82	0.16594127
176	0xbd3222dc	-0.043490276
177	0x3d65ef16	0.056136213
178	0x3de58814	0.112075955
179	0x3de4458a	0.11146076
180	0xbebaf228	-0.36512876
181	0xbe0a4241	-0.13501836
182	0x3dd287bf	0.10279798
183	0x3db21b29	0.08696587
184	0x3e05cbd9	0.13066043
185	0x3dd4a5de	0.10383199
186	0xbdd4ac73	-0.103844546
187	0x3d8fe36e	0.07025801
188	0xbc345bf0	-0.011008248
189	0x3d391a45	0.04519107
190	0xbe5e720e	-0.21723196
191	0xb884c837	-6.3315434e-05
192	0xbe2492be	-0.16071603
193	0xbe5a002a	-0.21289125
194	0xbdec387b	-0.1153421
195	0xbe1d251b	-0.15346186
196	0x3d594c0a	0.053051032
197	0xbde4977e	-0.11161707
198	0xbdd2d47a	-0.10294433
199	0x3e4a2a6a	0.19742742
200	0xbc8e81a8	-0.01739581
201	0x3cc85bec	0.024457894
202	0x3dfce463	0.12348249
203	0xbe4b19b5	-0.19834025
204	0x3e46969a	0.19393387
205	0x3d19215b	0.037385326
206	0xbe527164	-0.20551068
207	0xbe5a9fc3	-0.21350007
208	0x3ce22a99	0.027608203
209	0x3e4c01bd	0.19922538
210	0xbd19ccb4	-0.037548736
211	0xbe9e0b46	-0.30867976
212	0x3e41f3ad	0.18940611
213	0x3e36a4ad	0.17836256
214	0x3dd6da6a	0.10490878
215	0xbe3eb080	-0.18622017
216	0xbe9c0a72	-0.3047672
217	0xbe9cfe46	-0.30662745
218	0xbe747629	-0.238732
219	0xbd6217ef	-0.055198606
220	0x3dc70a80	0.097187996
221	0x3edd3fdb	0.4321278
222	0xbd1ac9e7	-0.037790205
223	0xbeb21f51	-0.34789518
224	0x3e393a58	0.18088663
225	0x3dba54ff	0.09098243
226	0x3db47943	0.08812191
227	0xbe1080df	-0.1411166
228	0xbedff136	-0.43738717
229	0x3daaabf7	0.08333581
230	0xbd5db927	-0.054131653
231	0xbe93513d	-0.28772917
232	0x3db26193	0.08710017
233	0x3dadb83e	0.08482407
234	0xbe2dbcfc	-0.16966623
235	0x3db4c2ed	0.08826242
236	0xbe2340e4	-0.15942723
237	0xbe526a11	-0.20548274
238	0x3e41ef11	0.18938853
239	0x3dad03c0	0.08447981
240	0xbea5980b	-0.32342562
241	0x3d6c372e	0.05766981
242	0x3f1fabee	0.6237172
243	0xbe9b24e0	-0.3030157
244	0x3db0a218	0.08624667
245	0x3da799fc	0.08183667
246	0xbdb8b563	-0.09018972
247	0xbe1d1ea5	-0.15343721
248	0xbdfe2512	-0.12409414
249	0xbe14fb94	-0.14549094
250	0xbdcce29b	-0.10004159
251	0xbe690881	-0.2275715
252	0xbe990d1c	-0.29892814
253	0xbd1075f4	-0.03526874
254	0xbdf340df	-0.118776076
255	0xbe54a4fe	-0.20766065

fc2.bias f4 [256]
0	0x3e1d35cb	0.15352552
1	0xbcae2a01	-0.021260263
2	0xbdf7e2c5	-0.121038
3	0xbd25f75b	-0.0405191
4	0x3d6bc8ce	0.05756455
5	0xbe29b115	-0.16571458
6	0xbeb55ee2	-0.35423952
7	0xbcee91a0	-0.029122174
8	0xbee6f61e	-0.45109648
9	0xbe0e68e1	-0.13907196
10	0xbde25f8f	-0.110533826
11	0x3da416ef	0.08012187
12	0xbe0985bd	-0.13429923
13	0xbd133f44	-0.035949007
14	0xbd354aa3	-0.044260632
15	0xbd1bc5ac	-0.03803031
16	0x3ddec185	0.10876755
17	0x3d019f4d	0.03164606
18	0xbe99d455	-0.3004481
19	0x3e9b1d8b	0.30295977
20	0xbd6b8da7	-0.057508137
21	0xbd999df1	-0.07500828
22	0xbf4dae46	-0.80344045
23	0xbe88c699	-0.26714018
24	0x3d8c668b	0.06855496
25	0x3d35f7d6	0.044425808
26	0x3c2e3e4f	0.010634973
27	0xbe434051	-0.19067504
28	0xba0940de	-0.0005235801
29	0x3c467537	0.012112907
30	0x3d016850	0.03159362
31	0xbd68913c	-0.05677913
32	0xbcee1d07	-0.029066576
33	0xbec446c4	-0.3833524
34	0x3d46533d	0.048419226
35	0x3ca2c77f	0.019870518
36	0xbd39d373	-0.04536767
37	0xbed00b0b	-0.40633425
38	0xbe2302a7	-0.1591898
39	0xbf1d4466	-0.6143249
40	0xbe00b1f8	-0.1256789
41	0xbe5fb5cd	-0.21846695
42	0xbc83e612	-0.016100917
43	0x3e6210f1	0.22076775
44	0x3e2086a8	0.15676367
45	0x3c9ac572	0.018892977
46	0xbe746786	-0.23867616
47	0x3df5e5a2	0.120066896
48	0xbe520846	-0.20510969
49	0xbdb261b6	-0.08710043
50	0xbde74749	-0.112928934
51	0xbeccf6ab	-0.40031943
52	0x3e155364	0.14582592
53	0xbed2f425	-0.41201892
54	0x3cb16a27	0.021657063
55	0xbe35bc5a	-0.17747632
56	0x3dd28104	0.10278514
57	0xbe1ff1ca	-0.15619579
58	0xbed0378e	-0.40667385
59	0x3e182e07	0.14861308
60	0xbf24f0b3	-0.6442978
61	0xbdc5a6c3	-0.09650948
62	0xbe91f549	-0.2850745
63	0xbe19f12e	-0.15033409
64	0xbcdfc719	-0.027316617
65	0xbed8a024	-0.42309678
66	0x3e57ec81	0.21086313
67	0x3d09a07d	0.03360032
68	0x3d817b4c	0.06322345
69	0xbe77bb6a	-0.24192587
70	0xbed2242d	-0.41043225
71	0x3e294efd	0.16534038
72	0x3d9252d1	0.07144702
73	0xbf8066ee	-1.0031412
74	0x3e1636b0	0.14669299
75	0x3df9ef80	0.12203884
76	0xbd1cdd64	-0.038297072
77	0xbe36a42d	-0.17836066
78	0xbea81626	-0.32829398
79	0x3e276ca1	0.16350032
80	0x3e31c213	0.1735919
81	0xbef67fe8	-0.4814446
82	0xbe713727	-0.23556195
83	0x3e2a295f	0.16617344
84	0xbea401fb	-0.3203276
85	0xbe56c9ff	-0.20975493
86	0x3b70d349	0.003674703
87	0xbd27f954	-0.041009262
88	0x3d8e7ca9	0.06957371
89	0x3e8aa247	0.27076933
90	0xbd9c4d0d	-0.07631884
91	0x3e05a064	0.13049465
92	0xbde33908	-0.11094862
93	0xbd25cfef	-0.040481504
94	0x3c11d94b	0.008901904
95	0xbe6b9b44	-0.23008448
96	0xbd80febc	-0.06298587
97	0xbeacb5f4	-0.3373257
98	0x3da5fe83	0.08105185
99	0x3dbd46b4	0.09242001
100	0xbde60d01	-0.11232949
101	0x3d414baf	0.047191318
102	0x3d19e75f	0.03757417
103	0x3dd8d2e5	0.105871
104	0xbed1c01c	-0.4096688
105	0x3e2e0cfb	0.16997139
106	0xbd849927	-0.06474524
107	0xbd08bc47	-0.03338268
108	0xbeb65869	-0.35614327
109	0x3bc53339	0.006018069
110	0x3dd4df37	0.10394137
111	0xbcd7a2bf	-0.02632272
112	0xbf2c1ae4	-0.6722853
113	0xbd80b93e	-0.06285332
114	0x3c1301a7	0.008972562
115	0x3d80e047	0.062927775
116	0xbdd960a5	-0.106141366
117	0xbf0a5d58	-0.5404868
118	0xbe528915	-0.20560105
119	0xbd01c260	-0.03167951
120	0x3e368478	0.1782397
121	0xbddd7f84	-0.10815337
122	0x3b4a018a	0.0030823671
123	0xbeee2244	-0.46510518
124	0x3e315cb7	0.17320524
125	0xbcfafd37	-0.03063832
126	0xbca8e71b	-0.020618012
127	0xbc643f6d	-0.0139311375
128	0xbeccf0a0	-0.40027332
129	0xbd18f99e	-0.03734743
130	0x3e0beae1	0.13663818
131	0xbe5462d7	-0.2074083
132	0x3cd83042	0.026390199
133	0xbf07a6ba	-0.5298878
134	0x3c69cc07	0.014269835
135	0x3e304fe0	0.1721797
136	0xbc3ec81b	-0.011644389
137	0x3de6a3bc	0.112616986
138	0xbe699666	-0.22811279
139	0xbdb0a539	-0.08625264
140	0xbe3d89e0	-0.18509626
141	0xbe9d0d69	-0.30674294
142	0xbc1b8b5c	-0.009493675
143	0xbe734885	-0.23758133
144	0xb85b3a34	-5.2267875e-05
145	0xbeb18f3c	-0.34679592
146	0xbed37f6d	-0.41308156
147	0x3dc75551	0.0973307
148	0x3d0b4435	0.034000594
149	0xbda2f993	-0.07957759
150	0xbc3b90d1	-0.011448101
151	0x3deafbf7	0.1147384
152	0x3c2d23fd	0.010567662
153	0xbe8f0917	-0.27936623
154	0xbc87d25f	-0.016579805
155	0x3dcf8da9	0.101344414
156	0xbe38c4c6	-0.18043813
157	0xbe830f26	-0.25597495
158	0x3ca70b33	0.020391082
159	0xbdee2530	-0.11628187
160	0x3e5b82e8	0.21436656
161	0xbe5d8309	-0.21632017
162	0xbdbd5636	-0.09244959
163	0x3ea41237	0.32045147
164	0x3e8b5091	0.27209905
165	0xbe853655	-0.26018015
166	0xbde2d7bb	-0.110763036
167	0xbe24ef89	-0.16107
168	0x3db1cee6	0.08682041
169	0xbcb4ac2b	-0.022054752
170	0xbe930816	-0.28717107
171	0xbc83af56	-0.016074818
172	0xbec02692	-0.37529427
173	0x3d27e8bb	0.040993433
174	0x3de673d4	0.11252561
175	0x3e060cac	0.13090771
176	0x3dc76e65	0.09737853
177	0x3d92acbf	0.07161855
178	0x3daf012b	0.08545145
179	0xbecc7a69	-0.39937142
180	0xbf22a948	-0.6353955
181	0x3d6c264b	0.057653707
182	0xbd6cfedf	-0.05786025
183	0xbf07ec9b	-0.53095406
184	0xbd9d60f3	-0.07684507
185	0xbe56e855	-0.20987065
186	0xbe1c64b5	-0.15272792
187	0xbd40b7bb	-0.04705022
188	0xbdd4f907	-0.10399061
189	0xbda32172	-0.079653636
190	0xbe4a5440	-0.19758701
191	0xbeda84b9	-0.42679384
192	0xbd58bfd1	-0.052917305
193	0xbe200a9f	-0.15629052
194	0xbe1acdfa	-0.15117636
195	0xbe311df3	-0.17296581
196	0xbe777a0d	-0.24167652
197	0xbe89c22f	-0.26905963
198	0xbeef386a	-0.46722728
199	0xbe3897d5	-0.1802667
200	0x3d7a48b4	0.06110449
201	0x3c8bc4ff	0.017061708
202	0xbcd190da	-0.025581766
203	0x3e0e60be	0.13904092
204	0x3dc3231b	0.0952818
205	0xbe8951d2	-0.26820236
206	0x3defaa82	0.11702444
207	0xbd8e70fa	-0.06955142
208	0xbe20f5b2	-0.15718725
209	0xbc5f5e21	-0.013633282
210	0x3de5c119	0.11218471
211	0x3cd3ffac	0.02587875
212	0x3d4485da	0.047979213
213	0xbdc0166f	-0.09379279
214	0xbce950ad	-0.028480852
215	0xbf24fc03	-0.6444704
216	0xbd4dc0b2	-0.050232597
217	0x3caf1c08	0.021375671
218	0xbe4644b7	-0.1936215
219	0xbdb84fb6	-0.08999579
220	0xbca93a5d	-0.020657713
221	0xbee953eb	-0.45571837
222	0x3d8be7df	0.06831335
223	0x3daf3a80	0.0855608
224	0xbe5ab64a	-0.213586
225	0xbd3f946f	-0.046772417
226	0xbee58dd1	-0.4483476
227	0x3d59b18f	0.05314785
228	0xbeb84869	-0.35992745
229	0x3cbe40ab	0.023224195
230	0x3dcb3311	0.099218495
231	0x3e0cb6ea	0.13741651
232	0xbe303b1b	-0.17210047
233	0x3d117774	0.03551431
234	0xbc8af0a7	-0.016960455
235	0xbddf47fa	-0.109024
236	0xbdcafe63	-0.09911802
237	0x3cf826bf	0.030291913
238	0x3cfdde9d	0.03098994
239	0xbc97a475	-0.018511036
240	0xbda53c05	-0.080680884
241	0x3c9d7b51	0.01922384
242	0xbe61a40e	-0.22035238
243	0x3e99d62d	0.30046216
244	0xbdb38762	-0.087660566
245	0x3d455e23	0.04818548
246	0x3d1e7ab5	0.03869124
247	0x3de3f0f5	0.11129943
248	0xbdf4d33b	-0.119543515
249	0x3e13be93	0.14428167
250	0xbe96a038	-0.29419112
251	0xbd93181d	-0.071823336
252	0xbde73067	-0.11288529
253	0xbd87e681	-0.06635762
254	0xbd99547f	-0.074868195
255	0x3db1150f	0.08646595

fc3.weight f4 [4, 256]
0	0x3faeba20	1.3650551
1	0xbdcb61ae	-0.0993074
2	0xbeb5e96f	-0.35529658
3	0x3c6532d9	0.013989174
4	0x3fcb5357	1.5884808
5	0x3eed274d	0.46319047
6	0x3e079540	0.13240528
7	0xbe0bc3dc	-0.13648933
8	0x3e863371	0.26211122
9	0xbd51ed7b	-0.05125187
10	0x3bad9243	0.005296977
11	0x3c3b5841	0.011434616
12	0x3f56b6e9	0.8387285
13	0xbe40cfe5	-0.18829305
14	0xbc31e57a	-0.010857934
15	0x3ddc8278	0.107670724
16	0xbe6c558e	-0.23079512
17	0x3f418df8	0.7560725
18	0x3d18b88b	0.03728537
19	0x3dddc751	0.10829032
20	0xbdd1ebbd	-0.10250042
21	0x3f05dc34	0.5228913
22	0x3e0a1369	0.13483967
23	0x3e5d744d	0.21626396
24	0xbe349220	-0.17633867
25	0x3f02f041	0.5114785
26	0xbeec2388	-0.46120858
27	0xbe54b4e7	-0.20772134
28	0xbe361cbf	-0.17784403
29	0x3d35a2eb	0.044344824
30	0x3e0bc18b	0.1364805
31	0xbd6d40ae	-0.05792301
32	0x3c9ff1a3	0.019524401
33	0xbe872e58	-0.26402545
34	0x3d8df568	0.06931573
35	0xbe2b988c	-0.16757411
36	0x3d87492f	0.066057555
37	0x3f5fd625	0.87436134
38	0xbdedcada	-0.116109565
39	0x3e183693	0.14864568
40	0x3c8f4d2e	0.017492857
41	0x3e3dc5d0	0.1853249
42	0xbde55a60	-0.11198878
43	0x3e246b27	0.160565
44	0x3f8cfb2b	1.101415
45	0xbc298ab0	-0.010348007
46	0xbd7cd15a	-0.06172309
47	0x40076550	2.1155586
48	0x3d560a9e	0.05225622
49	0x3d5b40bf	0.053528544
50	0x3c8e4612	0.017367397
51	0x3e23f3f0	0.16011024
52	0x3f050f33	0.5197632
53	0xbe2e2043	-0.17004494
54	0xbe415557	-0.18880211
55	0xbebcbd7f	-0.36863324
56	0xbdde7bb5	-0.10863439
57	0x3e8bc2c2	0.27297026
58	0xbde04226	-0.10950117
59	0x3f12e1c9	0.5737577
60	0x3cb05ca7	0.021528555
61	0xbeb4e83b	-0.35333428
62	0xbe65b789	-0.22433294
63	0x3e5afef7	0.21386324
64	0xbf1d931f	-0.61552614
65	0x3d7f186f	0.06227916
66	0x3c205789	0.009786495
67	0x3e2c1919	0.16806449
68	0x3d29cbe4	0.04145421
69	0xbe399248	-0.18122208
70	0xbdb2ab7d	-0.08724115
71	0xbcf1de2c	-0.029524885
72	0x3cb9daa7	0.02268727
73	0x3f754d1f	0.958208
74	0x3db68425	0.08911923
75	0xbc3feb61	-0.011713834
76	0xbf0ac188	-0.54201555
77	0xbda9de86	-0.08294396
78	0xbe3ef3b2	-0.1864765
79	0x3d397de7	0.045286085
80	0xbcd29c84	-0.025709398
81	0xbd866226	-0.06561689
82	0x3e866125	0.2624599
83	0x3e7cb676	0.24678978
84	0xbd8a6a63	-0.06758573
85	0x3e09a2f9	0.13441075
86	0x3ed8121f	0.42201325
87	0x3d51c3aa	0.05121199
88	0x3d24b78e	0.040214114
89	0xbe51f728	-0.20504439
90	0xbe09feda	-0.13476124
91	0x3eb714af	0.35757968
92	0xbe40cf70	-0.18829131
93	0xbe232f64	-0.15936047
94	0x3e0ba256	0.13636145
95	0xbd1ca746	-0.038245462
96	0x3e9aaa07	0.30207846
97	0xbcfc9c90	-0.030836374
98	0x3db49f9f	0.08819508
99	0x3cb22095	0.021744052
100	0xbdae74bc	-0.08518359
101	0xbe169d92	-0.14708546
102	0xbf0b686d	-0.54456216
103	0x3eb9d199	0.36292723
104	0x3c671594	0.014104266
105	0xbee59f90	-0.448483
106	0x3fab6043	1.3388752
107	0x3edd7df2	0.4326015
108	0x3e6c4ba5	0.23075731
109	0x3f16eaa0	0.5895176
110	0xbdc18cc0	-0.09450674
111	0x3e23349c	0.15938038
112	0x3e32c26e	0.17456982
113	0x3d272fa4	0.040816918
114	0x3ca98ea6	0.020697903
115	0xbdd29a11	-0.10283292
116	0xbe841c05	-0.25802627
117	0x3e214071	0.15747239
118	0x3c460ac6	0.0120875295
119	0x3c108427	0.00882057
120	0x3cfdeabf	0.030995725
121	0x3e76c645	0.24099071
122	0xbe3867bf	-0.18008326
123	0xbf04bbd9	-0.5184913
124	0x3cdbf7f6	0.026851635
125	0xbdd88797	-0.10572737
126	0x3d4fc8a9	0.050728474
127	0x3ca2b122	0.019859854
128	0x3f22c9fa	0.6358944
129	0x3cb540c5	0.022125611
130	0xbd0b3dcf	-0.033994492
131	0x3d8412ad	0.064488746
132	0xbd493af3	-0.049128484
133	0x3f15f69d	0.58579427
134	0x3eb8241d	0.35965052
135	0xbdd26b7f	-0.102744095
136	0x3e40d5ba	0.1883153
137	0x3f45e181	0.77297217
138	0xbd1d0a99	-0.038340185
139	0xbf6a5b4c	-0.9154556
140	0xbc2915b2	-0.010320114
141	0xbd1aea30	-0.037820995
142	0xbdf35043	-0.11880543
143	0xbc2d4e4b	-0.0105777485
144	0x3e8fcf3c	0.28087795
145	0x3ed786a8	0.42094922
146	0x3d5c459c	0.053777322
147	0x3d635a72	0.055506177
148	0x3d54f6fd	0.05199336
149	0x3da27a01	0.07933427
150	0xbdab2e4a	-0.08358438
151	0x3fcd2a17	1.602847
152	0xbbbd513e	-0.005777507
153	0x3e89a24b	0.26881632
154	0xbcc7750f	-0.02434781
155	0xbd018cff	-0.031628605
156	0x3d953917	0.0728628
157	0xbe0b06c4	-0.135768
158	0xbd4bda9a	-0.04976902
159	0x3fa7a761	1.3097955
160	0x4005aea8	2.0887852
161	0x3ebacab1	0.36482766
162	0x3db41fe5	0.08795146
163	0xbdc2709e	-0.09494136
164	0x3e0e899b	0.1391968
165	0x3ff0c20d	1.880922
166	0xbd8dad8e	-0.069178686
167	0xbe424ac8	-0.1897384
168	0xbcf791b6	-0.030220848
169	0x3fd1dc6c	1.6395392
170	0xbe64a2ed	-0.22327776
171	0x3ebb3456	0.36563367
172	0x3c3571f1	0.011074529
173	0x3aa8d517	0.0012880889
174	0x3e8a70c1	0.2703915
175	0x3df1fc1d	0.11815665
176	0xbd0a7656	-0.03380426
177	0xbc6c99dc	-0.01444098
178	0x3f12e8ff	0.57386774
179	0xbd51b82d	-0.051201034
180	0x3d744d0d	0.059643794
181	0x3e18c64b	0.14919393
182	0xbd61ff76	-0.055175267
183	0xbc0fbfcd	-0.008773756
184	0xbcab0ea2	-0.020881
185	0xbe27ecbf	-0.16398905
186	0x3edd8611	0.43266347
187	0x3e76a281	0.24085428
188	0xbeea897f	-0.45808026
189	0x3e9f5786	0.31121463
190	0xbc7b6b13	-0.015345353
191	0x3f11c1bb	0.56936234
192	0x3efadaf7	0.48995182
193	0x3e89d968	0.2692368
194	0x3c128b04	0.008944277
195	0xbc1b77bd	-0.009488997
196	0x3dbfb20b	0.09360131
197	0xbdee287d	-0.11628816
198	0x3e31dd59	0.17369594
199	0x3e4785cf	0.19484638
200	0x3d80c869	0.06288225
201	0x3e3ac25e	0.18238208
202	0x3e8d3936	0.2758271
203	0x3e156d0b	0.14592378
204	0xbebc62c4	-0.36794102
205	0xbe168b07	-0.14701472
206	0xbd8139f1	-0.063098796
207	0xbde34a63	-0.110981725
208	0xbe9b3ba3	-0.30318937
209	0x3cddc1ec	0.027070008
210	0xbf3e3cca	-0.74311507
211	0x3f6b186e	0.9183415
212	0x3d5d6ac4	0.054056898
213	0x3e293f91	0.16528155
214	0xbf2c20c6	-0.6723751
215	0x3ee99e91	0.4562879
216	0xbd5a4683	-0.0532899
217	0xbd68c6e0	-0.056830287
218	0x3bb49c53	0.0055117994
219	0x3e93b444	0.2884847
220	0xbdabec35	-0.08394662
221	0x3f28ca19	0.65933377
222	0x3ec48c17	0.3838813
223	0x3e31480d	0.17312641
224	0x3e302f1e	0.17205474
225	0xbeaaea3d	-0.33381835
226	0x3c842051	0.01612869
227	0xbe504d1c	-0.20341915
228	0xbeabe983	-0.33576593
229	0x3e36a6b1	0.17837025
230	0xbc5c5416	-0.013447782
231	0x3d3753cb	0.044757646
232	0xbc79502e	-0.01521687
233	0x3e162e16	0.14666018
234	0x3c2694e5	0.010167335
235	0xbe1e5190	-0.15460801
236	0xbdd6b32a	-0.104833916
237	0xbdbe7886	-0.09300332
238	0xbced321b	-0.028954556
239	0x3f8fbbdd	1.1229206
240	0xbe413583	-0.1886807
241	0x3c0bac5b	0.008524979
242	0xbe19d9a8	-0.15024436
243	0x3dc8f6f0	0.098127246
244	0x3d327b8b	0.04357485
245	0xbe838160	-0.25684643
246	0x3e4fbdbb	0.2028722
247	0xbb4077d3	-0.0029368296
248	0xbc62a4b4	-0.013833214
249	0x3dc6a79b	0.09699937
250	0x3e418d49	0.18901552
251	0x3e5b4aba	0.21415225
252	0x3e1ea346	0.15491971
253	0xbe91ba8a	-0.2846263
254	0xbd93ee6c	-0.0722321
255	0x3e7a1576	0.24422249

fc3.bias f4 [4]
0	0xbde8e70d	-0.113721944
1	0xbea850ec	-0.32874238
2	0xbe267420	-0.16255236
3	0xbe90ad0e	-0.2825703
